…
====Testing====
sports
The number of users: 35598
Average actions of users: 1.1244732850160122
The number of items: 13738
Average actions of items: 2.9137429028970736
The number of inters: 40029
The sparsity of the dataset: 99.99181486908563%
Sat 06 Apr 2024 08:45:16 INFO 

=================================


Sat 06 Apr 2024 17:27:53 INFO =========1/5: Parameters:['reg_weight', 'alpha1', 'alpha2', 'learning_rate', 'adj_tensor_path', 'aggr_mode', 'seed']=(0.1, 1.3, 0, 0.001, '../data/sports/adj_tensor_sampling_5.pt', 'add', 999)=======
Sat 06 Apr 2024 17:27:55 INFO FREEDOM_gmlp24(
  (user_embedding): Embedding(35598, 64)
  (item_id_embedding): Embedding(18357, 64)
  (image_embedding): Embedding(18357, 4096)
  (image_trs): Linear(in_features=4096, out_features=64, bias=True)
  (text_embedding): Embedding(18357, 384)
  (text_trs): Linear(in_features=384, out_features=64, bias=True)
  (gcn): GCN(
    (conv_embed_1): Base_gcn(64, 64)
  )
  (MLP_v): Linear(in_features=4096, out_features=256, bias=True)
  (MLP_v1): Linear(in_features=256, out_features=64, bias=True)
  (MLP_t): Linear(in_features=384, out_features=256, bias=True)
  (MLP_t1): Linear(in_features=256, out_features=64, bias=True)
  (vgmlp): GMLP(
    (fc_layers): ModuleList(
      (0): Linear(in_features=64, out_features=512, bias=True)
      (1): Linear(in_features=512, out_features=512, bias=True)
      (2): Linear(in_features=512, out_features=64, bias=True)
    )
    (dropout): Dropout(p=0, inplace=False)
    (layernorm): LayerNorm((512,), eps=1e-06, elementwise_affine=True)
  )
  (tgmlp): GMLP(
    (fc_layers): ModuleList(
      (0): Linear(in_features=64, out_features=512, bias=True)
      (1): Linear(in_features=512, out_features=512, bias=True)
      (2): Linear(in_features=512, out_features=64, bias=True)
    )
    (dropout): Dropout(p=0, inplace=False)
    (layernorm): LayerNorm((512,), eps=1e-06, elementwise_affine=True)
  )
)
Trainable parameters: 94761926
Sat 06 Apr 2024 17:28:00 INFO epoch 0 training [time: 4.12s, train loss: 1171.3709]
Sat 06 Apr 2024 17:28:10 INFO epoch 0 evaluating [time: 5.43s, valid_score: 0.076300]
Sat 06 Apr 2024 17:28:10 INFO valid result: 
recall@5: 0.0313    recall@10: 0.0493    recall@20: 0.0763    recall@50: 0.1265    ndcg@5: 0.0212    ndcg@10: 0.0270    ndcg@20: 0.0339    ndcg@50: 0.0439    precision@5: 0.0066    precision@10: 0.0052    precision@20: 0.0040    precision@50: 0.0027    map@5: 0.0176    map@10: 0.0199    map@20: 0.0218    map@50: 0.0234    
…
