…
The sparsity of the dataset: 99.98071694707788%
Tue 02 Apr 2024 15:49:33 INFO 
====Testing====
baby
The number of users: 19445
Average actions of users: 1.1150424273592183
The number of items: 5549
Average actions of items: 3.907370697422959
The number of inters: 21682
The sparsity of the dataset: 99.97990552482683%
Tue 02 Apr 2024 15:49:41 INFO 

=================================


Tue 02 Apr 2024 15:49:41 INFO =========1/5: Parameters:['reg_weight', 'alpha1', 'alpha2', 'learning_rate', 'aggr_mode', 'seed']=(0.01, 0.6, 0, 0.005, 'add', 999)=======
Tue 02 Apr 2024 15:49:54 INFO FREEDOM_gmlp24(
  (user_embedding): Embedding(19445, 64)
  (item_id_embedding): Embedding(7050, 64)
  (image_embedding): Embedding(7050, 4096)
  (image_trs): Linear(in_features=4096, out_features=64, bias=True)
  (text_embedding): Embedding(7050, 384)
  (text_trs): Linear(in_features=384, out_features=64, bias=True)
  (gcn): GCN(
    (conv_embed_1): Base_gcn(64, 64)
  )
  (MLP_v): Linear(in_features=4096, out_features=256, bias=True)
  (MLP_v1): Linear(in_features=256, out_features=64, bias=True)
  (MLP_t): Linear(in_features=384, out_features=256, bias=True)
  (MLP_t1): Linear(in_features=256, out_features=64, bias=True)
  (vgmlp): GMLP(
    (fc_layers): ModuleList(
      (0): Linear(in_features=64, out_features=512, bias=True)
      (1): Linear(in_features=512, out_features=512, bias=True)
      (2): Linear(in_features=512, out_features=64, bias=True)
    )
    (dropout): Dropout(p=0, inplace=False)
    (layernorm): LayerNorm((512,), eps=1e-06, elementwise_affine=True)
  )
  (tgmlp): GMLP(
    (fc_layers): ModuleList(
      (0): Linear(in_features=64, out_features=512, bias=True)
      (1): Linear(in_features=512, out_features=512, bias=True)
      (2): Linear(in_features=512, out_features=64, bias=True)
    )
    (dropout): Dropout(p=0, inplace=False)
    (layernorm): LayerNorm((512,), eps=1e-06, elementwise_affine=True)
  )
)
Trainable parameters: 39192830
Tue 02 Apr 2024 15:49:59 INFO epoch 0 training [time: 2.08s, train loss: 296.4913]
Tue 02 Apr 2024 15:50:05 INFO epoch 0 evaluating [time: 2.87s, valid_score: 0.072700]
Tue 02 Apr 2024 15:50:05 INFO valid result: 
recall@5: 0.0295    recall@10: 0.0470    recall@20: 0.0727    recall@50: 0.1276    ndcg@5: 0.0201    ndcg@10: 0.0257    ndcg@20: 0.0322    ndcg@50: 0.0431    precision@5: 0.0062    precision@10: 0.0049    precision@20: 0.0038    precision@50: 0.0027    map@5: 0.0167    map@10: 0.0189    map@20: 0.0207    map@50: 0.0224    
…
